#Model Summary
_________________________________________________________________
Layer (type)                 Output Shape              Param #   
=================================================================
conv2d_1 (Conv2D)            (None, 6, 4, 16)          160       
_________________________________________________________________
max_pooling2d_1 (MaxPooling2 (None, 3, 2, 16)          0         
_________________________________________________________________
conv2d_2 (Conv2D)            (None, 3, 2, 8)           1160      
_________________________________________________________________
flatten_1 (Flatten)          (None, 48)                0         
_________________________________________________________________
dense_1 (Dense)              (None, 64)                3136      
_________________________________________________________________
dropout_1 (Dropout)          (None, 64)                0         
_________________________________________________________________
dense_2 (Dense)              (None, 32)                2080      
_________________________________________________________________
dropout_2 (Dropout)          (None, 32)                0         
_________________________________________________________________
dense_3 (Dense)              (None, 1)                 33        
=================================================================
Total params: 6,569
Trainable params: 6,569
Non-trainable params: 0
______________________________________________________________________________________________________________________________________________________________________
Train on 80000 samples, validate on 20000 samples

Epoch 1/20
 - 3s - loss: 0.5320 - accuracy: 0.9331 - val_loss: 0.0411 - val_accuracy: 0.9855
…
